model_to_freeze/optimized_graph.lite (tflite, 375080 bytes, 22 tensors)

A1/A1_conv_bias f4 [24]
00000000: 253a 78bf c5ca 9abf eb07 32bf 8698 bfbe
00000010: 93b1 b9be 3b76 c8be 76ed 72bf 9a29 8fbf
00000020: 94b4 cebe a967 0c40 35eb 903e 3f9b 78bf
00000030: 0877 6cbf e9e9 87bf e4e4 5cbf 8d10 c7bf
00000040: ab13 29bf dff3 48bf 04e9 a5bf 7e3d 67bf
00000050: a4ab 07bf 4fe0 0ebf bcb5 b0bf dfaf 87bf
-0.9696372 -1.209313 -0.6954333 -0.37421054 -0.3626829 -0.39152703 -0.94893587 -1.1184571
-0.40372145 2.193827 0.2830445 -0.97111887 -0.9236913 -1.0618259 -0.8628676 -1.5551926
-0.66045636 -0.7849712 -1.2961736 -0.90328205 -0.5299628 -0.5581102 -1.3805461 -1.0600547

A1/conv_W f4 [24, 1, 1, 131]
00000000: 3794 32be 95c5 9a3d 1363 3e3e c671 3c3d
00000010: 1754 3abe bbd9 a83d 9f74 4fbe 260c 4fbd
00000020: b353 55be 61ff 56be b217 033d adaf 01bd
00000030: 8924 68bd d9eb f93d 051f adbd a21a 5fbe
00000040: 11e7 dd3d c15c 9dbc 5bd9 a0bc 87cd 7f3d
00000050: 7188 5bbc ddae eebc 477e 2f3e 7966 77be
00000060: 762b a73e 8807 4b3e 5258 59be 8944 29bc
00000070: c6d5 6bbd fdf2 8fbe b2c0 273e 4cca 0d3d
00000080: fbaf 793d e3d8 2dbe 8ed4 56bc 560e 0b3b
00000090: 7689 e63d b04e 013d 0a3d ed3d c7e1 dd3c
000000a0: 4db6 443e 5ee0 693c 5e40 fbbd 83b1 0bbe
000000b0: 6ac3 a5bd 0de5 693d acc2 e6bd d0c1 413e
000000c0: 97f2 393c c840 1fbe 0f84 423d 1f16 153e
000000d0: 5011 8ebd de79 3b3e d941 29be 1d55 603e
000000e0: b220 193d a1df 183e 1d05 753d 5f9e ed3d
000000f0: a16d 43bc 10df 8a3d 45b6 bbbc 8a2e 533d
00000100: 5056 d03c f3a6 0bbe c4d3 ae3c 111a 9f3d
00000110: 7ea8 2bbe a0eb 9dbc a1f4 45bd e046 123d
00000120: 2d39 54be 8204 973d 5464 cfbc 771e a8bd
00000130: 80f0 c63b f259 af3d 2ad1 253d 284d 50be
00000140: 79ff 8ebd b83e 233d 5093 f0bc ea9b 8dbe
00000150: 3af8 0cbe 7b92 e1bd 487e d2bd de7c fdbc
00000160: b643 d3bd badc 46bd a6ee debd 3dae d3bd
00000170: cd52 b4bd 7b67 a13d ef07 3d3d e1f5 ef3d
00000180: c6e7 41bc 1e80 0e3e b0a8 15bc 4377 f53b
00000190: 92f3 a5bd 6f8c 233d 3dfb 91bd f033 ca3c
000001a0: ec7d ecbc 2e26 253c 72fd 5cbc ea70 b73d
000001b0: eea6 46bd 69dd 60be 1c42 bdbd 11a0 063e
000001c0: ab44 27be 17e7 b1bd b5e7 1fbd 9427 bcbd
000001d0: 5a01 5e3d 09fa b3bc bfbd a63d 596e 633b
000001e0: ae16 823d 1efa 51be 0c9e a8bc a11e 5bbc
000001f0: 28dc 983d 8dc6 5f3d df76 78be 85df 5d3d
00000200: 1691 54bc b659 843c 2dfd ad3d 372c 07be
00000210: f210 883e 901f 353e 06b8 89bd b933 31be
00000220: 3fc7 34be 216c 3bbe b809 c2bd 07d8 53be
00000230: 9042 3b3e 965e 1cbe f282 b4bd dbda f93c
00000240: 4255 91bb 24cc 39bd e795 98be 0d1e a5be
00000250: 2121 8abd 9b6b b4be d8be 7abe 8c17 78be
00000260: 23c2 1fbe f960 08be 0585 fb3d ccf2 55bb
00000270: 29a8 ec3e bfa5 b8bd 2573 033e 294b 04bd
00000280: 8cab bdbc bde2 a13d 3f63 2ebd 2ba4 38bd
00000290: 92e9 6dbe 1b49 06be c5b1 e03d da9e 3d3e
000002a0: 3778 3dbe c259 f03d cedb fb3d c93e 103e
000002b0: 19cc 89bd e606 f9bd 0639 773c 9ab7 053e
000002c0: beaf 963e a17e 26be 4945 debc 2afa bdbd
000002d0: e352 823e 3076 e3bd 1967 a93d 9e1e fdbd
000002e0: 600c 7f3d 4a69 823e e8cb af3d b492 87bd
000002f0: a6bc f13d d2a7 acbd c41b 38be 3cc3 b3be
00000300: 4e8e 1a3c 2cfe 393d 6112 47be 4e92 2dbd
00000310: 2c3f 5bbe e41b c93c a0a1 5d3d 1a50 debd
00000320: 1fc3 403e 8844 d2bd 20a3 8dbd 5058 113e
00000330: c73b f2bd 8a97 9abd b1a1 25bd 9ae1 dd3d
00000340: 47ae dc3d 3631 87be 647b 353d c1d8 193c
00000350: 8475 58bd 9a67 2abd 1b6b 08be 81c1 d9bd
00000360: ee1f 7fbe 9af5 f43d ef1b 173d 3b9d 2a3e
00000370: 2cd2 d63d 02b8 d1bd bff9 8fbe 4b7d 68be
00000380: 0868 673c c0b2 12bd fe9f 4e3e b83f e5bd
00000390: 62bd c9ba 0fba 5c3e 863d 0c3d 5944 173d
000003a0: 3ba3 b13b 1399 8ebb 592b a43d 75f0 063c
000003b0: b34e a03d 5508 10be 70eb 1a3d 3227 50bd
000003c0: edce 133d 9fd3 8fbd b06f 053e ff62 11be
000003d0: f9d9 93bd 3d13 9f3c 366f 9b3d 143e 45bd
000003e0: 7d6e aabc 9f26 1dbe 314f 73bd 990e ff3c
000003f0: 4802 a83d 7e2a 21be 36f4 8c3d 0fb6 923e
-0.17439352 0.07557217 0.18592481 0.04600694 -0.1819614 0.08244654 -0.20259331 -0.050548695
-0.2083271 -0.20995857 0.03200502 -0.031661678 -0.056675468 0.122031875 -0.08453182 -0.21787503
0.10835088 -0.019209268 -0.019634893 0.062451866 -0.013399229 -0.029136116 0.17138015 -0.24160184
0.32650346 0.19827092 -0.21225098 -0.010331281 -0.057576917 -0.28115073 0.16382101 0.034616753
0.060958844 -0.16977267 -0.0131122 0.0021218262 0.11256687 0.031569183 0.11583908 0.027085198
0.19210167 0.014274685 -0.122681364 -0.13641934 -0.08093913 0.057103205 -0.112675995 0.1892159
0.011349342 -0.15552056 0.047489222 0.1455922 -0.06936896 0.18308207 -0.16529025 0.21907468
0.037384696 0.14929058 0.05981933 0.116024725 -0.011927993 0.06780827 -0.022914061 0.051558055
0.025431782 -0.13637905 0.021341212 0.07768644 -0.16763493 -0.019277394 -0.048329 0.035712123
-0.20724936 0.07373907 -0.025316395 -0.08208936 0.0060711503 0.085620776 0.040482678 -0.20341933
-0.06982321 0.039854735 -0.02936712 -0.27658015 -0.13766566 -0.11014267 -0.102779925 -0.03094333
-0.10315649 -0.048550345 -0.10885362 -0.10335968 -0.088048555 0.078810655 0.046150144 0.117168196
-0.011835044 0.1391606 -0.0091344565 0.0074910237 -0.08103098 0.03992885 -0.07127998 0.024682969
-0.028868638 0.0100799035 -0.01348816 0.089570835 -0.04849904 -0.21959461 -0.09241125 0.13146998
-0.16334789 -0.08686655 -0.039039332 -0.091872364 0.054200508 -0.021969812 0.0814166 0.0034703224
0.06351982 -0.20505568 -0.020583175 -0.013374002 0.074638665 0.054632712 -0.24264096 0.054168243
-0.012974044 0.016156059 0.08495555 -0.1320046 0.26575428 0.17687821 -0.06724553 -0.17304887
-0.17654131 -0.18302967 -0.0947451 -0.20687877 0.1828711 -0.15270457 -0.08814038 0.030499866
-0.0044352124 -0.0453607 -0.29801866 -0.3224949 -0.067446 -0.35238346 -0.24486864 -0.24227732
-0.15601401 -0.13318242 0.12281231 -0.003264594 0.46222046 -0.090159886 0.12836893 -0.03229824
-0.023153089 0.07904575 -0.042575117 -0.045078438 -0.23233631 -0.13113825 0.10971407 0.18517628
-0.1850289 0.1173587 0.12297784 0.1408645 -0.06728382 -0.12159519 0.015089279 0.1305832
0.29430956 -0.16259243 -0.027132647 -0.09276231 0.25453863 -0.11106527 0.082716174 -0.123593554
0.06226766 0.25470954 0.08583814 -0.06619778 0.1180356 -0.08430447 -0.17979342 -0.3510989
0.009433342 0.045408413 -0.19440605 -0.042375855 -0.21410817 0.024549432 0.054109216 -0.10855122
0.18824433 -0.102669775 -0.06915879 0.14193845 -0.11827808 -0.07548435 -0.040437404 0.10834046
0.10775428 -0.26404732 0.044307128 0.009390057 -0.052846447 -0.04160271 -0.13322107 -0.10632611
-0.24914524 0.11960907 0.036891874 0.16661541 0.10489306 -0.10240175 -0.2812023 -0.22704045
0.014123924 -0.035815 0.2017822 -0.11193794 -0.0015391523 0.2155535 0.03423836 0.036930416
0.00542107 -0.004351744 0.080160804 0.00823604 0.07827511 -0.14065678 0.037822187 -0.05081863
0.03608601 -0.070227854 0.13030887 -0.1419792 -0.07219309 0.019418353 0.07589571 -0.048154905
-0.020804638 -0.15346764 -0.059401695 0.03113489 0.0820356 -0.15738866 0.06882517 0.28654525

B1/B1_conv_bias f4 [8]
00000000: 3d4a 5a3e cbc3 6dbe 08db a3bf 5e31 90bf
00000010: 0e72 ffbe b722 3dbf 456b febf cb5e 08c0
0.21317382 -0.2321922 -1.2801218 -1.1265066 -0.49891704 -0.73881096 -1.9876486 -2.1307857

B1/conv_W f4 [8, 1, 1, 131]
00000000: 1433 73be b522 24be 4db3 243e 65ea 35bc
00000010: a90e c8be 61f2 703d b646 cfbd 6528 9abe
00000020: b5ca 0c3e 0e8f dd3e 428e 6e3e 7a39 20be
00000030: 4c05 23bf c434 e43e 806e b63d 0a02 d03e
00000040: 64ad 3fbd 8642 64be 3672 933e 678c 04be
00000050: 8813 66be 2f3b d9bc a9b0 693e 34cc 42be
00000060: 0d81 89be 3ff0 f13d 0de9 e0bd 1b88 afbe
00000070: 4920 78be 56ce 8ebe 83c4 3ebc afd0 25be
00000080: 47b0 a03d bead 5f3e 5ae9 a83e 0460 633e
00000090: dc86 313f a143 83bd 8de9 9bbc 2c47 cdbe
000000a0: 0677 113e 3582 fc3d 4dda a4bd e757 f8bd
000000b0: c308 b8be fa83 e0bd 63bd 9fbd 366d 98be
000000c0: 57ba a9be b53d 3cbe b5e5 bbbc 28f9 413d
000000d0: 2124 a6bd 06ec a6bd 4843 863d daa4 c43d
000000e0: 149f f3bd a61d 9a3e 2370 3ebe d972 203e
000000f0: a652 253d 64bd 5c3e d698 d83d a0ac c53c
00000100: 8aba 39be 66ff f93d ca43 0ebd 0880 b1be
00000110: b295 473d 0c34 8fbe ce74 d03c c225 ecbd
00000120: d420 9b3d 93df 3d3e 5306 ec3d c3ac 68bd
00000130: 8062 fdbd c47b 513d d80b a93b 9e68 923e
00000140: af9b c8bb 7fe0 f63d c46c ebbc 7391 a33d
00000150: e936 443e a6b3 463c b3d5 6cbd d4a0 c7bd
00000160: 2400 bc3b f30f c3bd e5fe 8d3d 0e36 643e
00000170: 91a9 3f3d e1f0 913d e3c1 6f3d f0c6 22be
00000180: 7eb7 123e c59d 9a3d b6ba f9bc 5ffc 55be
00000190: 37ae ffbd a3de 53bd 23f3 953d da17 883d
000001a0: a715 42bd 54b8 0ebe ab24 2a3e fb0b 2a3e
000001b0: 57a3 b1bb 6f2f 473d 25a5 803b dc6b a9be
000001c0: 26e3 59bc 938f a23d 185d 17be 4499 a6bc
000001d0: 8ff3 b0be 08cd cfbe 677d af3d 31f5 8e3d
000001e0: 0735 5bbd 4131 f13d be74 d03d bdb2 5dbd
000001f0: b666 edbd 7f01 303d 1baf cb3c 37dc 8b3e
00000200: 82f0 ba3d 2ef0 67bd 523c cb3c a439 d23e
00000210: ebed e03c 29e4 7abd aecf 9e3c c74d dabd
00000220: 7bbe 883e 7ed5 933d e3f6 f43d 471a 2dbe
00000230: 57f5 10bd c780 b1bc 5caa 40bd 04ce 32be
00000240: d54a 66be 3831 013e cb15 39be 74cc 013e
00000250: 515f eb3c 1279 80bc 25a2 8a3e 4c00 1d3e
00000260: 5463 10be 277c 94bd feb8 36be ce88 f0bb
00000270: 0e5e 9bbe aa3c 06bd 6a21 753d b7ce babb
00000280: c58d a33d 3e41 b63e fb7a 88be 59ae 4abc
00000290: 20d5 41bc 7f8e 23be d080 7cbe ac56 1c3e
000002a0: befd 06be d23a 343e 6ec0 233e e9a3 4f3d
000002b0: 493e 59bd 6cb6 a6be 46fe 94be 5cba 833b
000002c0: c5f9 29bd 43cb b13d 4191 563e 0f46 003e
000002d0: bd2c 333e 611f 943e 5c95 2b3e 2f56 aabd
000002e0: 0737 c83d da1b abbe beef d83d 6bcc febe
000002f0: 43a9 84be 0be7 16bd 9bab 973b afb1 843e
00000300: 79ee 893d d752 b93d e684 173e 4a7a 193d
00000310: 4894 263d 557c 02be e189 0b3e 63e4 3cbe
00000320: e337 03be 4a3d d53d fc13 663d df7c b33d
00000330: 47d2 433e ef3e 8abe c6e1 6b3c c1c1 60bd
00000340: 8ccf 95bd 55f3 78bc b332 6bbd 17da 06bd
00000350: 3a3a 23bc 3bf9 483d 947f 4a3d 47ce e83a
00000360: d51b ce3d d529 5fbe a760 083e 8544 e73b
00000370: 7b11 21bd 789c 1b3d 7b6a 46bd 6c31 873b
00000380: cf7f 5abe e7d2 673e 15c8 05be 6d0a 8a3d
00000390: 536e 04bd 465b 67bd 9320 b83d d448 89bb
000003a0: 988c b4bd 41c5 9239 4dfa e33d 7602 e6bd
000003b0: 43fc fc3d 2e97 3ebd 72e2 423e 5340 e8bd
000003c0: 9cf8 35bc 5f6b 203e 2c1d e43d 8876 8d3e
000003d0: 5a98 12be 784f 40be 663a eebd 3c5e 35be
000003e0: 12d9 953d 5f15 e8bd 7fc0 05be dd30 3dbb
000003f0: 1597 833d 2f6e b43d 2c7a 0c3d 972d d3bd
-0.23749954 -0.16028865 0.16084023 -0.011103247 -0.39073685 0.0588249 -0.10120909 -0.30108944
0.13749202 0.43273205 0.23296455 -0.15646926 -0.6367996 0.44571507 0.08907795 0.40626556
-0.046796218 -0.22291002 0.28798074 -0.12944184 -0.22468388 -0.026517479 0.22821297 -0.1902321
-0.2685627 0.118134014 -0.10981951 -0.34283528 -0.24231066 -0.27891797 -0.011643532 -0.16192888
0.07846122 0.21843621 0.32990533 0.22204596 0.69346404 -0.064093836 -0.019032264 -0.40093362
0.1420556 0.123295225 -0.0804945 -0.12126141 -0.35944185 -0.109626725 -0.077997945 -0.2977082
-0.3314998 -0.18382914 -0.022936681 0.047356755 -0.0811236 -0.08150487 0.06555802 0.096017554
-0.11895576 0.30100745 -0.18597464 0.15668811 0.040362023 0.21556622 0.10576026 0.024130166
-0.18137565 0.122069165 -0.034732617 -0.34667993 0.048726745 -0.27969396 0.025446322 -0.11530639
0.07574621 0.18542318 0.11524644 -0.056805383 -0.12372303 0.051143423 0.0051588826 0.28595442
-0.0061220746 0.12054538 -0.028738387 0.079867266 0.19161572 0.012127792 -0.057820987 -0.097474724
0.0057373215 -0.095245264 0.06933383 0.22286245 0.04679257 0.07126022 0.058534514 -0.15896201
0.14327809 0.075496234 -0.030484539 -0.20897053 -0.12484401 -0.051725995 0.07321765 0.06645174
-0.04738393 -0.13937503 0.1661555 0.16606133 -0.005421083 0.04862922 0.0039259368 -0.33090103
-0.013298785 0.07937541 -0.14781606 -0.020336755 -0.3456082 -0.40586114 0.085688405 0.0698036
-0.053517368 0.117769726 0.10178517 -0.054125536 -0.11591856 0.042970177 0.02486377 0.27316448
0.091279045 -0.056625538 0.024809036 0.410596 0.027457198 -0.061252747 0.019386139 -0.10659366
0.26707825 0.07218455 0.119611524 -0.16904555 -0.035390224 -0.021667851 -0.047037467 -0.17461401
-0.22489484 0.12616432 -0.1807472 0.12675649 0.028731974 -0.01568273 0.2707683 0.15332144
-0.1410039 -0.07250243 -0.17844006 -0.007340527 -0.30345196 -0.032772698 0.05984632 -0.005700912
0.07986025 0.3559665 -0.26656327 -0.012370669 -0.011830598 -0.15972327 -0.24658513 0.15267438
-0.13182732 0.17600563 0.15991375 0.050693426 -0.053037915 -0.32561052 -0.29100245 0.0040200185
-0.041497964 0.08681347 0.20953847 0.12526725 0.17497535 0.2893019 0.16756195 -0.083172195
0.09776121 -0.33419687 0.10592602 -0.49765334 -0.25910386 -0.036841433 0.0046286113 0.25916812
0.06734938 0.090490036 0.1479679 0.03747014 0.040668756 -0.12742741 0.13626815 -0.18446498
-0.12814288 0.104120806 0.056171402 0.08764052 0.19123183 -0.2700114 0.01439709 -0.054872278
-0.07314977 -0.015194734 -0.057421397 -0.03292283 -0.009962613 0.04906581 0.049438074 0.0017761671
0.10063902 -0.21793301 0.1331812 0.0070577287 -0.03932331 0.037991017 -0.04844139 0.0041257646
-0.21337818 0.22639047 -0.13064606 0.0674027 -0.032331776 -0.05648353 0.08990588 -0.00418959
-0.08815879 0.00027994256 0.111317255 -0.11230938 0.123528026 -0.046530895 0.19031695 -0.11340394
-0.011106636 0.15665959 0.111383766 0.27629495 -0.1431593 -0.18780315 -0.11632232 -0.17711729
0.073167935 -0.11332201 -0.13061713 -0.0028868236 0.06425301 0.08810078 0.0342962 -0.1031143

B2/B2_conv_bias f4 [8]
00000000: 183f 59bf 22d5 90bf 1ecf 83bf a308 92bf
00000010: 9ec5 78bf f22c 68bf 48bb 3dbf 11c3 29bf
-0.848619 -1.1315043 -1.0297582 -1.1408886 -0.9717654 -0.9069358 -0.74113894 -0.6631327

B2/conv_W f4 [8, 3, 3, 8]
00000000: ee5b 40be 7cfe 7b3d 111b 81bd 4fcd 5bbe
00000010: 29e5 aabd a9da 02bf 0a6e d13e 5b46 be3d
00000020: c951 12be 69ac d0be 16ab 1dbd 359b a83d
00000030: 2c31 ef3d bc18 6a3f 4a26 4f3e c9ed 243f
00000040: 4d59 dbbd b7d0 e9be 6f8a 7b3e 5635 a0bd
00000050: 7b7e e2bb 50e3 2a3f 59a3 b6be cee5 97be
00000060: 1439 32be e1b0 133e 8244 39be a507 96be
00000070: efb2 85be 048c 09bf f5f5 d23e ff1f 1b3e
00000080: 211f 8c3d 348e 373e 7eb3 c83d 4a10 553d
00000090: 4e6c 84bc 685e a83e feb3 483e 77e4 183e
000000a0: a2ec 19bd 2610 e03c a163 8abe 4b17 22be
000000b0: d68e 51bf 3c80 033d 0f44 9f3d b30c 5abe
000000c0: 378e 48bd 9262 903d bd9d 03be 424f a3bb
000000d0: 2bd5 2ebd de04 2f3e 4b99 ab3c 1a93 e43d
000000e0: e22e 213c 80b0 29be d49d b9bd 920e 65bd
000000f0: 576d 5d3e ae73 333e 8c2b b33e ce97 983e
00000100: b395 403d ebf7 f9bd 93c5 3bbd 2169 183b
00000110: f6c0 9d3d 3297 3a3e 5e6c c8bd 1916 453f
00000120: 0bb3 013d 66e6 09bd a135 dd3c 7c43 883d
00000130: 3806 2cbb d1a9 6d3d 1530 a83e 0c2e 6dbe
00000140: 75ae 5a3d 917c 103e fc21 04be 168f 883e
00000150: f8ac c43d 6f6f 2f3d a5d7 943e 899a 3ebe
00000160: b568 903d 11a0 3cbe 97ae d03d f0eb d9be
00000170: 8321 233e 21e3 153f 9ce7 923e ad24 0cbf
00000180: 51a8 003e 7c52 09bd 90bf 2bbc 22d8 0ebd
00000190: a7d1 bc3b 0986 973c d65c c0bc 0639 593d
000001a0: 27eb a93d 05dc 923d 517b cc3d a5b4 36bf
000001b0: d008 d2bd 4f0a acbd 5d55 813e f079 1e3f
000001c0: c138 89be 82d0 1fbc 4c58 ed3d ce52 f53d
000001d0: f389 71bc 3153 a03d 048a b43e 807c a13e
000001e0: 5b3c bbbd 4bce 183c 18cc dbbc 5ddc 19bd
000001f0: 7239 c73b 9a7d 73be 0037 a9bd 15d7 0d3d
00000200: eea6 023d e3e3 3abd 768c 573d c047 273d
00000210: 96c7 15bd abde 143e 1ac3 6dbe 2726 54be
00000220: 884a af3d 2652 0ebe 0bc8 103c 53fc 87bd
00000230: bfcd 5e3c d558 03be 83be 043e 16dc ae3d
00000240: 1db7 85bd 7682 6dbe 95f5 98bd d213 0dbd
00000250: 0139 c23d 3e12 f93e 9b5c 123d 41a6 c0bd
00000260: 84f4 753d 5a3f 4abd f6d9 0b3d b6c1 953d
00000270: 5fe4 2bbd 8b0d 253a 49d5 b6be bcaf 633e
00000280: 0b21 8fbc 4511 16bd 5109 82bb 6681 e33c
00000290: 784c 4d3b 7f4c 8e3d 4ab4 0ebe f72b b93d
000002a0: 0887 a4bd 6803 213e ccfa 5b3e 0eb5 9b3e
000002b0: 51ba e8bd 2be1 023e e2ff 2e3f ed68 1f3d
000002c0: 771b f43c 60ed ce3d 2894 ebbe faa6 45bc
000002d0: 2a7b f93d f68c 33be 3aa2 65be db3b 043c
000002e0: 6649 ab3b 8361 3b3d 932b 50bd 817f fabc
000002f0: 18b6 9a3d f201 0f3e 1bc1 3b3e e165 9ebd
00000300: cc4e 8b3e e2a7 81be a9cf 89be 9fec 5abe
00000310: 1e3e 81bd 06f2 13bf c1bb 6c3e aebf d83e
00000320: 1bf4 f9bc 2b08 0abe 7f89 433e b276 0cbe
00000330: 2c1e 123d 9d2a 0d3e fd78 043f ade1 3e3e
00000340: dff4 10bd bdd1 3dbd 0787 db3c 976a 2e3d
00000350: 18d9 cebd a049 67bc 9364 103e 5bc2 23be
00000360: c415 b4bd 2793 acbe 8db2 35bc a7e0 883d
00000370: d299 11bc ac14 9abe 9c9d ba3d 1654 103e
00000380: c8f7 a7bd e13e b83e 4038 8cbe b632 603e
00000390: 2b2c b63d a52f b4bd 9fea ec3e ac4f 183f
000003a0: a73b e5bb 40e9 1abe 2397 ff3d af6b 80be
000003b0: 2ae6 f1bc 9ccb 193e c51c c3bd 6a3d 38bc
000003c0: 83cb 303e 6f27 a0bd e519 ca3d 9604 643d
000003d0: 33ca d43d 62bc 7b3e e46f 5a3e 6e47 54be
000003e0: ba8d cebe 3123 bcbd c341 d03e 8c4f 043d
000003f0: a617 7bbe 130e 8dbe cf28 c33d 6757 083f
-0.18785068 0.061521992 -0.06303991 -0.21465038 -0.0834449 -0.511149 0.40904266 0.09290763
-0.14289011 -0.4075654 -0.03849324 0.082327284 0.11679301 0.9144399 0.2022945 0.6442533
-0.10710392 -0.4566705 0.24564527 -0.07822673 -0.0069120503 0.667531 -0.356715 -0.29667515
-0.17404586 0.14422943 -0.1809254 -0.29302707 -0.26113078 -0.5372927 0.41203275 0.15148924
0.06841875 0.1792534 0.097998604 0.052017488 -0.016164925 0.32884526 0.19599912 0.14930902
-0.037579186 0.02735145 -0.27029136 -0.15829198 -0.81858575 0.032104716 0.07776653 -0.21293907
-0.04896375 0.07050051 -0.12853141 -0.0049838135 -0.04268376 0.170917 0.02094712 0.1116087
0.009837838 -0.16571236 -0.090633065 -0.0559221 0.21623741 0.17524597 0.3499416 0.29803318
0.047017764 -0.1220549 -0.04584272 0.002325602 0.0770282 0.18221739 -0.097862944 0.76986843
0.03166489 -0.03366699 0.027003111 0.066534966 -0.0026248824 0.058023278 0.32849184 -0.23162097
0.05338903 0.14110018 -0.12903589 0.26671666 0.09603304 0.04283088 0.29070774 -0.18613638
0.07051221 -0.18420435 0.1018955 -0.4256282 0.15930752 0.58549696 0.2869233 -0.5474346
0.12564208 -0.03352593 -0.010482684 -0.03487409 0.005762297 0.01849653 -0.023481768 0.053032897
0.08296805 0.07170872 0.09984458 -0.7136939 -0.10255587 -0.08400404 0.2526044 0.6190481
-0.26801112 -0.009754302 0.11589107 0.11978684 -0.014742362 0.078283675 0.35261548 0.31540298
-0.09142371 0.009326528 -0.026830718 -0.03756367 0.006079846 -0.23778382 -0.082624435 0.034628946
0.031897478 -0.045627486 0.05262419 0.04083991 -0.036567293 0.14538066 -0.23218957 -0.20717679
0.085591376 -0.13898525 0.008836756 -0.06639924 0.013598858 -0.12826855 0.129633 0.08538072
-0.06529067 -0.23194298 -0.07468716 -0.03444273 0.09483529 0.4864673 0.035732847 -0.094067104
0.06004764 -0.049376823 0.03414341 0.07312338 -0.04196584 0.00062962685 -0.357096 0.22235006
-0.01747181 -0.036637563 -0.0039683958 0.027771663 0.0031326097 0.06948184 -0.13935962 0.09041589
-0.08033568 0.15723956 0.2148239 0.3041157 -0.11363662 0.12781207 0.68359196 0.038918424
0.029798253 0.101038694 -0.46011472 -0.012063736 0.12181695 -0.17534241 -0.22425166 0.008070911
0.0052272556 0.04574729 -0.050822806 -0.030578377 0.07554263 0.13965586 0.18335383 -0.077342756
0.27208555 -0.25323397 -0.26916245 -0.21379326 -0.06310676 -0.57791173 0.23118497 0.4233374
-0.030511906 -0.13479678 0.1909542 -0.13717154 0.035673305 0.13785787 0.51747113 0.18640776
-0.035389777 -0.0463426 0.026797784 0.04258212 -0.10100001 -0.014116675 0.14100866 -0.1599211
-0.08793214 -0.33706018 -0.011089933 0.06683474 -0.008886771 -0.30093896 0.09112093 0.14094576
-0.082015574 0.35985473 -0.27386665 0.21894345 0.08895143 -0.0879815 0.46272752 0.5949657
-0.0069956365 -0.1512804 0.12479999 -0.25082156 -0.029528696 0.15019077 -0.09526972 -0.011245111
0.17265134 -0.07820021 0.0986822 0.055668436 0.10390129 0.24583581 0.21331745 -0.20730373
-0.40342504 -0.091864 0.40675172 0.032302424 -0.2452074 -0.275498 0.09529268 0.53258365

CNN1/CNN1_conv_bias f4 [32]
00000000: 2a65 8fbf b691 c3bf 5065 853f f3e4 a5bd
00000010: b19e bdbf ed75 79bf f6c8 0dc0 47d2 13c0
00000020: f358 1d3f fbee d23f d09d 6bbc c6a4 babf
00000030: 66f0 0540 7f4e d2bf 7574 8bbf 0c21 e03f
00000040: a16b 0c40 5b28 77be c6c7 0e40 bffb febf
00000050: 2d1c c3be 5cd4 6b3f aaf5 0040 f926 f4bf
00000060: 86f2 19c0 f9f4 f93f 7387 e9bf 3c3d 84bf
00000070: 075f ff3e e113 a0bf 28b5 03c0 fcfd d33f
-1.1202748 -1.5278842 1.0421543 -0.08100309 -1.4814054 -0.97445565 -2.2153907 -2.3097093
0.6146385 1.6479181 -0.014380887 -1.4581535 2.0927978 -1.6430205 -1.0894915 1.7510085
2.1940691 -0.24136488 2.2309432 -1.9920577 -0.38107434 0.9212091 2.0149941 -1.9074394
-2.4054275 1.9527885 -1.8244461 -1.0331187 0.49877188 -1.2506067 -2.057932 1.6561885

CNN1/conv_W f4 [1, 3, 3, 32]
00000000: 1dab 06be 886d 89be 7994 fcbe 249f 0f3e
00000010: c747 043d b1ff 20bf ad28 653e b838 6cbe
00000020: 640e 0d3e c029 883e 3958 8d3e 8a06 aabe
00000030: 3d98 59be dd62 d5be d1f5 c63d 6b33 133e
00000040: 0da8 143f bc67 ed3e 948d fa3e 2659 ff3e
00000050: ce1c aabd 1b16 513e c093 403f baad 6c3e
00000060: edb3 fb3e 95db 6abe 885a 983d f434 51bd
00000070: f5ac 633e bcb8 b23d b2d5 0f3e 5168 44be
00000080: c877 593e 9db7 95be d2b1 d93e cbc0 0ebe
00000090: dd5a 1d3e e76b babd cdad 7c3e bbcb 133f
000000a0: 60c9 50bf deaa 09bf d431 a1be a0c6 9cbe
000000b0: 07a7 7abe e095 eebc 059d 3fbd c766 e9be
000000c0: f7e0 01be ab3d 07be 8bcd 2abf 94f8 2fbf
000000d0: 72a6 54bf 2294 d3be f559 bd3e f1bd 7e3f
000000e0: a567 45be 9bcc 293f 86f1 3b3e 493e e9bc
000000f0: aa43 753e 2467 d4bd 2a29 aebe 9f70 733e
00000100: f7ec bdbd 1442 13be e87e aabe c5bb 1fbf
00000110: 7e66 753b b09a 403d 7c1f be3e 9dd4 fe3e
00000120: 2155 9d3e ea73 23bc bfc2 d43d 5e00 113e
00000130: a553 82bc 3d91 d83e a70f 77be e94e 8e3e
00000140: 05ef fc3e b49d 67bd ab0f b43e 304e ef3c
00000150: 24a3 9b3e 522f 383f d1f1 9dbe 5960 19bf
00000160: 34d9 823d fd0c 8abe 910b 36be 92b4 343e
00000170: b280 a03e 7647 293b 33fd b23d 4c42 30bd
00000180: d766 b43a bc7e 06bf 3493 4c3f 1d84 e1bc
00000190: 943c 98be e54c 993e ece2 5abe 230d a0be
000001a0: 101b b93d c376 503c aa1b fbbe 650b 973e
000001b0: d444 f83e bee7 173f 3590 043e f16d 9d3e
000001c0: 98d5 48bf da75 e5be 652b 58be 801a 3e3f
000001d0: 54c5 c73d 9100 58be acbf 2abf c31b bbbe
000001e0: 4298 76be 816d 40bf 66c8 b4be 1ec1 12be
000001f0: 4e4d 12bf d638 373f f03e bebe eafc e7be
00000200: c063 12bf a0ae 5d3f a2c5 66bf 851f 953d
00000210: 4ce1 243f 461a f8be 9270 28bf efc8 a03e
00000220: a57f 723f e285 50bf 4bc9 d53e 159a 213f
00000230: f115 e33e 6884 b33e 94d4 2fbe 470e 0fbf
00000240: b446 40bb f957 c63e 35bb 25be 9088 c8be
00000250: dfa9 3e3f 88f3 6e3e 482e 21bf 5ff1 febd
00000260: 80eb 293f 7a4a a6be decb 553e 1ff7 ce3e
00000270: b3fd cebe e2d8 c6be 86b5 26bf 4023 31bf
00000280: 0b7a 22bf c56c c73e 1b40 313d 9bc5 983e
00000290: 0cce d1be 6f01 113f 221b 6f3d 52c1 36bf
000002a0: b139 a6be 07a5 c23e 5030 593e 77d7 12be
000002b0: 654b c5be d578 c3be 2bbd b33e dee5 aa3e
000002c0: e787 fcbe 2f7d 77be 0f0b a5be 1e31 60bd
000002d0: 7611 13bf 61df 40bf c027 7dbe 443d 893e
000002e0: b830 00bf 3832 ccbe bc82 c03e a5c0 3fbe
000002f0: 6e83 01bf 2e9e 14be d18a 193f aa8a 183f
00000300: 0b48 dd3d 6321 553e bb0b 9d3e 7211 dd3d
00000310: 0513 1e3e f390 7c3c 3e41 99bd 3d78 373e
00000320: 188e 913e c130 163e 14c2 463c 4dfd 17bf
00000330: d7e4 77be 45d8 96be 69e1 a13d 46cf 223e
00000340: 9bb1 fa3a 71bc b5bd 5740 f6be aa7c 54bc
00000350: aa4e 8fbc c30f 0f3e 3b0c 46be cc04 3ebc
00000360: 1162 5d3e 1639 3c3f a9e9 d43e 3012 56bf
00000370: a08d b63e b89b 02bf 8345 0b3e 1527 1f3d
00000380: a67b 1e3f 284e 2d3e bd1e e43c 2607 5fbe
00000390: 5553 e33d 2764 133f b71c 803e 65eb 96be
000003a0: 4562 25bf 9120 babd cf42 abbe 7a2a f53e
000003b0: 2916 2ebe 3fcd d4be 27b8 98be ebfc 8ebe
000003c0: f479 693e 85ce 63bd 196a 7b3f b3b9 d73b
000003d0: 182e 2c3f d356 62be 1a51 ad3e 36f5 07bf
000003e0: 6dd6 e4be 60bb 99bd cc90 fcbe 489d 143f
000003f0: 3125 633e 9084 9f3e b9ab bc3e b7bb 1e3e
-0.13151212 -0.26841378 -0.49332026 0.14025551 0.032295015 -0.62890154 0.22378798 -0.23068511
0.13775021 0.26594353 0.2760637 -0.33208114 -0.2124948 -0.4167699 0.097148545 0.14375083
0.58068925 0.46368206 0.4893614 0.49872702 -0.08306275 0.20418589 0.7522545 0.23113146
0.4916071 -0.22935326 0.074391425 -0.05107589 0.22233947 0.087266415 0.14046362 -0.19180419
0.21237099 -0.29241648 0.4251848 -0.13940732 0.15366693 -0.09102612 0.24675675 0.57732743
-0.81557274 -0.5377635 -0.31483328 -0.3062029 -0.24477778 -0.0291242 -0.046780605 -0.45586225
-0.12683474 -0.13207118 -0.66719884 -0.68738675 -0.83066475 -0.41323954 0.36982694 0.9950858
-0.19277819 0.6632783 0.18353853 -0.028472083 0.23951593 -0.10371235 -0.3401578 0.2377343
-0.09273713 -0.14380676 -0.33299947 -0.6239589 0.0037445123 0.04702252 0.37133396 0.49771586
0.3072901 -0.009976367 0.10388707 0.14160296 -0.015909025 0.42298308 -0.24127065 0.2779458
0.49401107 -0.05654688 0.35168204 0.029212087 0.30397904 0.71947205 -0.30848554 -0.5991264
0.063890845 -0.26963034 -0.1777785 0.17647007 0.31348187 0.0025829948 0.087397 -0.043031976
0.0013763559 -0.5253713 0.79912114 -0.027528817 -0.29733717 0.29941478 -0.21375626 -0.31260023
0.09038365 0.0127236275 -0.49044544 0.2950088 0.48490012 0.59337986 0.12945636 0.3074794
-0.7845092 -0.44816476 -0.21110304 0.74259186 0.09754434 -0.21093966 -0.6669872 -0.36544618
-0.24081519 -0.7516709 -0.35309142 -0.14331481 -0.5714921 0.715711 -0.37157393 -0.45310146
-0.57183456 0.8659458 -0.90145314 0.072814025 0.64406276 -0.48457545 -0.6579677 0.314033
0.9472602 -0.8145429 0.41755137 0.63125736 0.44352677 0.35061955 -0.17170936 -0.5588116
-0.0029339017 0.38738993 -0.16184695 -0.3916669 0.7447795 0.23335087 -0.62961245 -0.12448382
0.6637497 -0.32478696 0.2087855 0.40422913 -0.40427932 -0.38837343 -0.6512073 -0.6919441
-0.6346747 0.38950172 0.043274026 0.2983826 -0.40977514 0.5664281 0.058375485 -0.71388733
-0.3246589 0.3801653 0.21209836 -0.14340006 -0.38534084 -0.38178125 0.3510526 0.333785
-0.49322435 -0.24168848 -0.32235 -0.05473434 -0.5744852 -0.7534085 -0.24722195 0.26804554
-0.5007434 -0.39882064 0.37599742 -0.18725832 -0.5059117 -0.14513466 0.5997744 0.59586585
0.10804757 0.20813517 0.30673012 0.10794343 0.15436943 0.015415418 -0.07483147 0.17916961
0.2842872 0.14667036 0.012131233 -0.5937088 -0.24208389 -0.29461876 0.07904322 0.15899381
0.0019126417 -0.08873833 -0.48095962 -0.012969175 -0.017493565 0.13970856 -0.19340603 -0.011597823
0.2161944 0.73524606 0.4158452 -0.836215 0.35654926 -0.5101886 0.13600735 0.03885563
0.6190742 0.16924345 0.027846688 -0.2178007 0.11099879 0.57574695 0.25021908 -0.29476467
-0.6460307 -0.09088243 -0.33449408 0.4788397 -0.17000641 -0.4156284 -0.29827997 -0.27927336
0.22800428 -0.055616874 0.9820877 0.0065834164 0.67257833 -0.22103433 0.33850938 -0.5310854
-0.44694844 -0.07506442 -0.4932922 0.5805249 0.22182156 0.31155825 0.36849764 0.15501295

CNN2/CNN2_conv_bias f4 [26]
00000000: de9f 0440 c069 2240 007e 12bf a621 4a3f
00000010: 63b5 50be 7957 98be 770e 4b3f 0f72 d73d
00000020: fd4d d73f 7e7c 2f3f 5e3a 0540 87a2 e5bd
00000030: 88e9 4dbf 1e0a 293f 5525 c73f 778a 3bbf
00000040: c5b8 27c0 95e8 6bbf 7271 06bd 2f73 15c0
00000050: 9933 2d40 f4e0 b13f 3e1e d83f c056 d33f
00000060: 6616 c33f f0c3 7b3f
2.0722575 2.5377045 -0.5722351 0.78957593 -0.20381694 -0.29754236 0.79318947 0.10519802
1.6820675 0.68549335 2.0816875 -0.1121264 -0.80434465 0.6603106 1.5558268 -0.73258156
-2.6206524 -0.92151767 -0.032823034 -2.3351552 2.7062743 1.3896775 1.6884229 1.6510849
1.524121 0.9834585

CNN2/conv_W f4 [26, 3, 3, 32]
00000000: 1424 49bf e652 53bc e8ec e73e af15 003e
00000010: 0c4c 203c 248d dfbd 001d f03d ae61 2e3d
00000020: 6f2e 1fbc b8c0 b23d a0a5 423e 661e 05bd
00000030: 689f 923d ec7b 27bd 24b9 1e3e 6338 9cbd
00000040: dc1e 3ebe a1ca e7bd 7243 dfbd 0a8a 843d
00000050: 6b1c 5e3c 2fa0 61bd 70e1 163e 2311 b0bd
00000060: 6d7d c83d 021f 1a3d 0f8a 24be 57ba 63bd
00000070: 226d 6dbc 5a59 15bb ae5f 0dbe 0782 863e
00000080: 5c85 32bf 0e70 3dbe 322f 7c3c 311e 62be
00000090: b6f8 283e 6bb7 39bd e95a 08bd 8285 21be
000000a0: 3422 00be 42c7 03be 6ad8 623d 38a1 d9bc
000000b0: 347d cf3d 6b1a 00bf 0c78 3abd cd0b c4bc
000000c0: 2cf7 a3be cf3f 19be c570 0d3c ac41 dfbc
000000d0: fe13 57be 88ed 2fbe 8e77 2c3d a8da 0dbd
000000e0: 7d7e 1dbe cb3d f03c 1a23 c6be 7859 d5be
000000f0: b9d8 a0be ae53 a7be 202b 92bc 178e 4cbc
00000100: 56b0 6cbd 6344 2abd 770e e1bd b122 613e
00000110: eaed 9abc aecd 013a e90a 35bd f9d7 f3bd
00000120: 02b7 213e dda7 ddbd 3d62 45bd 4ae7 9b3d
00000130: f297 80bd 51d0 acbe 5978 4f3c 332f 2d3e
00000140: 255e b7bd 13f8 68bd 715c 043e cee2 bc3d
00000150: c608 99bd 6809 333e 655b 033d 5a0e 063d
00000160: 50bb 923c 811b a2bc 6153 ebbd e6e5 76be
00000170: deb0 22be 104d 8fbe 250b 73bd 212f bdbd
00000180: 72f9 6abe 9887 e93c 25a8 6c3e ed46 3fba
00000190: ac27 ecbc 483a e6bc af32 e2bd fe5b 6bbe
000001a0: 672f d1b9 c741 12be 5c9f d63d a4ca 2a3d
000001b0: 3acb b53d 8093 38bd 0868 043e e2d8 6bbe
000001c0: a26c 4abe c29d fabd 9987 f1bd 285c 663d
000001d0: e3c6 bfbe 050e 29be a179 d33c a4fd 65be
000001e0: 3981 ffbd ccbe d13c 190f bbbe f739 98bb
000001f0: 88f7 67bd c94e 81bc 5685 80be 4471 6d3e
00000200: 73fd 1b3d ab69 acbe 6cf4 8dbd 3d93 c9be
00000210: 96d9 5a3c 995d c5be 675a 49be ed4b c4be
00000220: a658 1b3d 3711 2cbe 7fcb b03c 684d 0fbe
00000230: 4b32 243e 4810 16be 81a8 0d3e 2fce 0cbe
00000240: 83f0 e3bc b8b4 303e a17b 20be 2efc 70be
00000250: de8f b0be 6e41 3d3d b884 ccbe de1c 30be
00000260: 8276 f13a ea07 91be adcc 05be fa86 30be
00000270: 59a0 bbbd f183 573d 42a0 f93c 1fa9 d4be
00000280: 3e05 b73e 0f91 7e3c 2168 b9bc 2724 c93d
00000290: 71dc 22bd 3a7a 01be a154 c43b b638 d3bd
000002a0: 3a02 d8bd a00f 9abb d0c6 9bbe 3ade 033e
000002b0: 46ee eebe 0ae4 3c3e 770a 373e 829c a5bc
000002c0: 8141 273e 085b 47bd 4bbe 3e3e d845 fbbd
000002d0: dd70 1b3e e689 e9ba 7f68 423e 60de 01bf
000002e0: 0aae 50be d2b1 dbbe 73cb 94be f494 383e
000002f0: 23a0 1ebd 2e1f 903e 6390 1bbe 44ff 063e
00000300: c003 a83d d10d 6dbc fe91 da3e 5022 42be
00000310: ce61 11be 6341 0f3d 24b3 02bd 8cd6 1bbe
00000320: 280c 4d3d be5c 86be 7445 653d 21a1 e63d
00000330: 5cda 3f3c 69e6 4bbe d5ed 51bd 921c abbe
00000340: 952f 09be 6bdd 213e 582f 16be 2ea3 21be
00000350: 7a4d 5fbe ac67 013e f04e 793d 21b8 b23d
00000360: eeb5 043c f9fa b83c f6af 42bd 0184 75be
00000370: 67db 0d3e 60f9 a03d 6bfc f7bd a316 51be
00000380: a5ce 063e 3588 753d c784 8c3e 3519 77be
00000390: 8846 4a3e 35d6 6c3e c5e5 d9bd 3e7b a73d
000003a0: 7aa8 a6bd 9037 203e b421 463e d1e8 ffbb
000003b0: fe2f ddbd 0c6b bdb8 ad82 57bd baf6 903e
000003c0: d1de babe e4ac 033d 0b27 743d 017d b3be
000003d0: f29f dd3c 1e0f 3ebe 385d 0cbd dc99 613c
000003e0: 9579 983d 9c8a 5ebd 76e1 97bd 7fb7 72be
000003f0: 84c6 dfbd 172c 143e a1c0 493e 1825 0a3d
-0.78570676 -0.0128981825 0.45297933 0.12508272 0.009783756 -0.10915592 0.11724281 0.042573623
-0.0097156605 0.087281644 0.19008493 -0.032499693 0.071593106 -0.040889665 0.15500313 -0.076279424
-0.1856646 -0.11317945 -0.10901536 0.06471641 0.01355658 -0.055084404 0.14734435 -0.085970186
0.09789548 0.037627228 -0.1606829 -0.05559763 -0.014491351 -0.0022788853 -0.1380603 0.26271078
-0.6973474 -0.18499777 0.015392112 -0.2208183 0.16501126 -0.045340937 -0.033289824 -0.15773585
-0.12513047 -0.1286898 0.05538217 -0.026566133 0.101313025 -0.5004031 -0.045524642 -0.023931408
-0.32024515 -0.14965747 0.008632843 -0.027252994 -0.2100372 -0.17180455 0.042106204 -0.034632355
-0.15380283 0.02932634 -0.38698655 -0.41669822 -0.31415346 -0.3268103 -0.01784283 -0.012485049
-0.057785355 -0.041569125 -0.10989087 0.2198589 -0.018912274 0.0004951608 -0.044199858 -0.11906428
0.15792468 -0.10823033 -0.04818939 0.07612474 -0.06278981 -0.33752683 0.01266297 0.16912536
-0.089535035 -0.056877207 0.12925889 0.09222947 -0.074723765 0.17484057 0.032069582 0.03272853
0.017911583 -0.019788506 -0.11490513 -0.24111137 -0.15887782 -0.27988482 -0.0593368 -0.09237505
-0.22946718 0.028507039 0.23111017 -0.00072966405 -0.02882751 -0.028103963 -0.110448234 -0.22984311
-0.00039898904 -0.14282905 0.10479614 0.04169716 0.08876653 -0.045062542 0.1293031 -0.23031953
-0.19768003 -0.12237121 -0.11793441 0.05624023 -0.37456426 -0.16509254 0.025814833 -0.22460037
-0.12475819 0.025603674 -0.36534956 -0.004645582 -0.05663255 -0.015784638 -0.25101727 0.23187739
0.038083505 -0.33674368 -0.069313854 -0.39370146 0.013357541 -0.38547972 -0.19663392 -0.38339177
0.03792634 -0.16803442 0.02158141 -0.13994372 0.1603481 -0.14654648 0.1383381 -0.13750528
-0.027824646 0.17256439 -0.1567216 -0.23533699 -0.34484762 0.046204977 -0.39945006 -0.17198512
0.0018422159 -0.2832635 -0.13066359 -0.1723899 -0.09161443 0.052616064 0.030471925 -0.4153528
0.35746187 0.015537514 -0.02263266 0.09821349 -0.03976101 -0.12644282 0.005991534 -0.10313551
-0.105473 -0.0047015697 -0.3042512 0.12877741 -0.46666163 0.18446365 0.17875086 -0.02021623
0.16333582 -0.0486708 0.18627279 -0.12269181 0.15179773 -0.0017817586 0.18985175 -0.5072994
-0.2037889 -0.42909104 -0.2906147 0.18025571 -0.038726937 0.28148788 -0.15191798 0.13183314
0.0820384 -0.014468626 0.42689508 -0.18958402 -0.14197466 0.034974467 -0.031909123 -0.15218562
0.05006042 -0.26242632 0.05597444 0.11261202 0.011709776 -0.19912113 -0.051252205 -0.33420235
-0.13397057 0.1580712 -0.14666498 -0.15784904 -0.21806899 0.12637204 0.060866296 0.08726526
0.008100016 0.02258061 -0.04753109 -0.23976137 0.13853227 0.078600645 -0.12108692 -0.20418791
0.13164766 0.05994435 0.2744505 -0.2413071 0.19753468 0.23128588 -0.10639528 0.081778035
-0.08137603 0.15646195 0.19348794 -0.0078097363 -0.108001694 -9.032161e-05 -0.052614857 0.28313237
-0.3649812 0.032147303 0.059607547 -0.35056308 0.027053807 -0.18560454 -0.034268588 0.013769593
0.07445065 -0.054331407 -0.0741605 -0.2370281 -0.10926536 0.14469944 0.19702388 0.03372678

CNN3/CNN3_conv_bias f4 [22]
00000000: e00c d43f 6e40 c13e d865 1fc0 fbc8 ff3e
00000010: ddd5 70be 7080 1abe 747e 8ebf 3da9 2b40
00000020: ee05 4bc0 4d23 07c0 366f 0140 1e5f c33f
00000030: 6766 35bf 52b3 0340 a4a0 d5b9 2d95 2940
00000040: 1bbf bf3f ee25 db3f e596 b4be 8066 093e
00000050: a9b9 cb3f 6225 cf3e
1.6566429 0.37744468 -2.490591 0.49958023 -0.23519082 -0.15088058 -1.113234 2.6822045
-3.172237 -2.1115296 2.0224128 1.5263402 -0.7085938 2.0578198 -0.00040746212 2.64973
1.4980196 1.712095 -0.35271373 0.13418007 1.5916034 0.40458208

CNN3/conv_W f4 [22, 3, 3, 26]
00000000: 8e53 e93e f2d1 42be b9f0 8ebd fd28 9cbd
00000010: d392 9cbd 0d20 943d 45ef 1e3e 387c f2bc
00000020: 4c7e 0d3e a8cb 59bd eb8b aa3d 7678 22be
00000030: 90c3 c03d c5c1 313e 4508 d73e 6ad5 36be
00000040: 2d8a 48be 0c96 12bc 3c65 293e 8a07 b3bd
00000050: c366 04bb f620 1a3e bd72 07be 2fe2 9fbd
00000060: 9560 7abd 13fc 443c 727c 443d d78b 2bbe
00000070: 5473 663e 01fb d5bd 48d8 353d d10f b03d
00000080: 1623 a13d d298 8e3d d217 b33e b285 0fbd
00000090: c948 ecbc 2150 673d 71ce 123e d3db 12bd
000000a0: 2ed2 383d 97b7 e4bd d7ad 00be 805c e63c
000000b0: f239 c93d 5593 c7bd 6854 4cbc 90dc f13d
000000c0: d7f3 013c eb95 0cbe af73 5cbe 153d 773d
000000d0: 77c4 e4bd 55ad df3d 5b3a 853b 4520 7d3d
000000e0: 654c 873d 65f3 acbc 67cf e5bd 998e 233d
000000f0: d268 51be 87f6 a03d d5e7 503d 1d6b 80bc
00000100: b62b a4bd 6abd d93d 7854 733e 0fd8 a1bd
00000110: 4edc 133c 06c5 dc3d a312 513e aefc c93c
00000120: 2684 2ebe c66a 27bd b143 be3e 7b9f 32be
00000130: 4e1b 743e b6bf 2f3e c85c 2d3d 1ffe 1e3c
00000140: e709 49be a50c 41be 7892 45be 8603 3a3e
00000150: 4402 5d3e 3452 5bbd 8b19 953d 53a8 b3bd
00000160: 30c5 903e 59a9 8d3d 8ed6 9abe c182 d53b
00000170: b3d9 84bd 4397 97be 2f3b ba3d f5e3 e33d
00000180: 2ee0 a9be 86d5 0ebe 9001 983d 94c8 d03e
00000190: f7c5 623e 4904 20be 055e 03be c014 6a3e
000001a0: 88b7 b5bd 94be 8b3c c92e f83c db51 cebc
000001b0: 739f e23d 5fa6 3fbe 75c0 01be 6f8c 613d
000001c0: a732 8f3d 5389 a1be 63ed 23be 4a12 4f3e
000001d0: 1149 0d3e a06d 833d ce21 753d 6493 9bbd
000001e0: 596f 40be 8097 bbbe 521d 84be 5c27 b2be
000001f0: 8860 9bbe f407 8f3e 512a ad3d 8a0e 6cbe
00000200: 0051 143e ce10 e93d 96e6 1dbe 7051 e53d
00000210: b27d e63d e85e 05bc ced0 813d 90b6 bebb
00000220: 78aa 8bbe 05c0 623e 4b73 98be f04c a73d
00000230: b0e4 823d 1ad4 703e f134 07bd cf1a 41bc
00000240: e34e 233d 57c9 37be a673 4bbd 3061 563e
00000250: ef1e f43d 542b 62be 738e 84bc 4217 903d
00000260: c834 08bc ecb3 d1bb dbf1 163e 7043 bd3d
00000270: 5ceb fe3c 4ee6 ff3d f6a2 0a3d 5cf1 a93d
00000280: 56cd 5cbe d880 03bf 3f42 0dbe b9ea de3d
00000290: 3750 cf3d 544a 09be 006f 5ebe ab93 3b3d
000002a0: 357c d0bc e3a1 ca3e 153d a7be db49 9e3d
000002b0: 6642 47be 7bad 42be 4230 b13d 0630 48bd
000002c0: 77e1 0cbe 5728 3dbd 0674 a4bc a18c f8bd
000002d0: 13a1 943e 0250 053e 0587 00be be9c 29bd
000002e0: eb74 bd3a c0c5 363e dc91 e83c 10c1 c43c
000002f0: 0036 1cbc 8324 f3bd 355c 233d a59b 1e3d
00000300: 1d5b 813e c335 ec3c fe77 fdbc ac43 833e
00000310: 596d 0b3e d1bc 6dbd 6cd2 1cbd 9fbf 7cbe
00000320: 0321 f4bb f78c 033e 6684 7b3d c1d7 d8bd
00000330: 32c2 d93c 1dbd be3d cca0 893d d5f2 44bd
00000340: a98d 093e e07b 08be 2cd4 2d3c cfe8 a03d
00000350: 4b62 3ebe 7b47 a83b 829c 0abe c541 193e
00000360: 74bd c93d d714 7d3e ac92 803e 0d72 d5bd
00000370: 597c 873d 9c5c 4a3d ecc6 d3bd ea44 153e
00000380: 4aed 913e d0de 09be 2c0c 253d 19e6 31be
00000390: 0cfa 2cbe f744 f83e c886 803c a8dc b83e
000003a0: eddd b8be f889 8dbc d23e 213f ee3a 2b3e
000003b0: 966e debd 3913 c0bd 65ae 3dbe eafb c0bd
000003c0: 0da6 0cbe e4a7 773c 083c 74bd 453b debd
000003d0: 6003 b13d fa6c d23b e23c 6ebd 3047 923e
000003e0: d08b d9bd e069 0ebe 71b6 b53c 3323 19bd
000003f0: 1e26 06be 3c82 f5bb 0436 543b 3787 99bd
0.4557156 -0.190254 -0.06979508 -0.076250054 -0.07645192 0.07232676 0.15520962 -0.029600248
0.1381771 -0.053172737 0.083274685 -0.15866265 0.094123006 0.17359073 0.41998497 -0.17854849
-0.1958396 -0.008946907 0.16542524 -0.08741672 -0.0020202852 0.15051636 -0.13227363 -0.07806813
-0.061127264 0.01202299 0.047970243 -0.16752563 0.22504932 -0.10448266 0.044395715 0.08596767
0.0786802 0.06962742 0.3497911 -0.03503961 -0.0288433 0.0564729 0.14336564 -0.035854172
0.045122318 -0.111678295 -0.12566315 0.02812028 0.09825505 -0.09744898 -0.012471296 0.11809647
0.007931671 -0.13729064 -0.21528505 0.060360987 -0.11170285 0.10921732 0.0040657944 0.061798353
0.06606368 -0.021112153 -0.112211995 0.039930914 -0.20450142 0.07859521 0.051002342 -0.015676076
-0.0801615 0.10631831 0.23762691 -0.07902538 0.009024693 0.10779767 0.20417266 0.02465662
-0.17042598 -0.04087331 0.3716102 -0.1744365 0.23838541 0.17162976 0.04232481 0.009704142
-0.19632684 -0.1885248 -0.19294155 0.18165407 0.21582896 -0.053545192 0.072802626 -0.0877234
0.28275442 0.06917066 -0.30241817 0.006515831 -0.06486835 -0.2960759 0.090933196 0.11127464
-0.33178848 -0.1394864 0.07422173 0.4077803 0.2214583 -0.15626635 -0.12828834 0.22859478
-0.088728964 0.017058648 0.030295746 -0.025185516 0.11065569 -0.1871581 -0.12671073 0.05506557
0.06992083 -0.31550083 -0.16008525 0.2022182 0.13797404 0.06417394 0.05984669 -0.07596472
-0.18792476 -0.36639023 -0.2580362 -0.34795654 -0.30347085 0.27935755 0.08455337 -0.23052421
0.14484024 0.11380158 -0.15419993 0.111971736 0.11254443 -0.008140303 0.063386545 -0.005820103
-0.27278495 0.22143562 -0.29775462 0.081689715 0.06391275 0.2351841 -0.033009473 -0.011786177
0.039870154 -0.17947899 -0.049670838 0.20935512 0.119199626 -0.22086841 -0.016181206 0.07035686
-0.008313365 -0.006399622 0.14740698 0.09241378 0.031118087 0.12495099 0.033846818 0.08297989
-0.21562704 -0.51368475 -0.13794802 0.108846135 0.10122722 -0.1340726 -0.2172203 0.045795124
-0.025449852 0.39576635 -0.3266379 0.077289306 -0.19458923 -0.1901149 0.086517826 -0.048873924
-0.13757883 -0.04618105 -0.020074856 -0.12136198 0.2902914 0.13018802 -0.12551506 -0.041409247
0.00144544 0.17848873 0.028389864 0.02401784 -0.009534359 -0.118721984 0.039882857 0.038722653
0.25264826 0.02883423 -0.030941006 0.25637567 0.13615932 -0.058041397 -0.03828661 -0.24682473
-0.0074502244 0.12846743 0.061405562 -0.10588027 0.026581857 0.09313414 0.06720123 -0.048083145
0.13432945 -0.13328505 0.010609668 0.07856905 -0.18592183 0.0051354743 -0.13536265 0.14966495
0.098505884 0.24714981 0.25111902 -0.10422144 0.06615514 0.049404725 -0.10340676 0.1457707
0.2850135 -0.13463902 0.04029481 -0.17372932 -0.1689226 0.48490116 0.015689269 0.36105847
-0.36106816 -0.017277703 0.6298648 0.16721699 -0.10860936 -0.093786664 -0.18523557 -0.09423049
-0.13735218 0.015115712 -0.059627563 -0.108511485 0.08643222 0.0064216824 -0.05816353 0.28569937
-0.1062237 -0.13907576 0.022181721 -0.037387084 -0.13100478 -0.007492332 0.0032380829 -0.07496493

CNN4/CNN4_conv_bias f4 [18]
00000000: e839 723e 9bcc 5bbe 8464 f8be f4a8 0c40
00000010: a530 c23f 6861 b8bf aafa a73c 6a06 bcbf
00000020: 42b2 b9be 301d 8abe 1007 f83e b112 dabf
00000030: ef36 8fbf 594f bd3f 6456 6b3f cab2 c5be
00000040: 4027 2dbf e469 5eba
0.23654902 -0.2146477 -0.48514187 2.197812 1.5171095 -1.4404726 0.020505268 -1.4689457
-0.36268812 -0.26975393 0.48442888 -1.7036954 -1.1188639 1.478984 0.91928697 -0.38612968
-0.67638016 -0.0008484407

CNN4/conv_W f4 [18, 3, 3, 22]
00000000: ce1e 08bd 4095 463c e8a0 97bd 9b15 30be
00000010: 0e02 073d 6900 933d f9f8 1e3d 2d66 24be
00000020: 937e b4bd 2453 f53d caee cdbc 4979 d43d
00000030: e5db cf3d 08f4 a73c 7568 68be 1767 863d
00000040: a8ad 313d 80b2 df3c 2457 033e beb7 dfbd
00000050: 23d9 0ebe 7efe 0c3d 6cb1 29bd 6f72 ee3d
00000060: 20e8 2f3d 30d0 53bd 0257 9b3d a5f8 20bd
00000070: 92fa 2fbd 9f9a 9a3b 7744 c3bd 0365 163e
00000080: 2542 83bd ed8c 263e b9e0 ad3d 6a29 6a3e
00000090: 2b44 b63c 9cb6 1abe cdd1 e73d 4e6f 4cbe
000000a0: 6b6e 3b3d 5081 293e 6aca a9be f0bc 453d
000000b0: eba4 debb 8dcd 123d 407f f73d 1eda f0bd
000000c0: c207 61bd 9eb2 3e3d ef6b e6bb 349f 65bd
000000d0: f175 813c a889 b93d 9844 08bd 80e1 263d
000000e0: 058f 8b3e 7368 383d 081d 113d 2c71 f4bb
000000f0: 9712 153d bfb4 8a3e 858a 0f3d 0120 b93c
00000100: 2f1f cabd ed08 f23d 5a32 1bbd 1a3d f93c
00000110: 2f8f a63d 3dd6 c9bc b1df 293d 8dee 0d3e
00000120: 2acd 8f3c 6d5c 93bd d47b d0bd ac27 293d
00000130: e4af 0f3d 990c c83d c247 183e 4f80 023e
00000140: 67b9 bdbe 783d 513c 2efa 3a3e 1da1 eebd
00000150: 1eb6 c8bd 9d6e afbd 4ad1 c43d 7b76 e1bd
00000160: 4cc7 bbbd 15fd c9bd 1daa 5abe 60b2 65bc
00000170: 2ac0 f5be e9b0 25be 6532 1ebe 22f5 6b3e
00000180: 5253 f93d aeeb 1739 8b81 a73e 8db6 a8be
00000190: f1c0 023e 5df6 2fbd c6de 513e d094 a23d
000001a0: 3df0 b23d c802 503e 44dc 72be d25d 113e
000001b0: 08d8 eb3b c4cb 593e 18ca ac3e f670 34bd
000001c0: d7b7 27be 27ef ba3e a2c0 7a3d d596 13be
000001d0: 8543 b4bd cedb cfbe fd60 07be 9321 1a3e
000001e0: bd2b b7be af75 4abe 4746 1fbe 5864 7c3d
000001f0: 26dd 25be a580 3fbe 6951 47be 673b 5b3e
00000200: 93e3 0b3e cc3c 50bd 8ef1 b3be fc99 46be
00000210: db18 03be 5e48 313d 66cd 5a3e 29b8 7c3d
00000220: 50a3 f0bc f700 823d 3c7a 1a3e 70d0 b0bc
00000230: f502 adbd 0f34 54be d70b 11bc 9587 4a3d
00000240: 13b8 76be 22f8 83be 961e c7bc 367a 0e3d
00000250: 5c64 0c3d b3e6 bbbc 574a 24bd b28a 7e3b
00000260: cb86 0d3d ec3e 9d3d 834b debc fdae 7d3e
00000270: 4960 f0bd 8de9 7bbb 4f94 85bd 8a82 1b3e
00000280: e736 6fbe 6c5d 1e3d 71fd 823e 85b9 83be
00000290: 85b6 493b 5759 263d 58bd c73d b22b fc3e
000002a0: 4a69 833d efab ad3d 619d 913d a031 8a3d
000002b0: e335 12be a3af 04be 7334 9d3c abe2 06bd
000002c0: 30f6 043d b14b b6bd a730 8cbd 9726 d23d
000002d0: e75b 543d 2609 aabd 3a61 1c3c 55b6 67be
000002e0: 74de 2cbe 825e 3d3e a31f 9ebe 1573 7dbe
000002f0: 19eb 90be a0ce c5bd 946e 31bb 649f 1fbe
00000300: 5a94 29bd 65ee 91bd 0102 8ebe 936f a03d
00000310: 497c 8bbe 833b b3be e179 c2bc 4ace e33d
00000320: 4c35 a8bc fc79 5a3e f754 91be dd28 12bf
00000330: 9b3c 92bd b40e 4d3d 78da 0d3e 4d3b 9e3d
00000340: cefa 03be 1196 fbbc 8c65 033e 65d1 dabd
00000350: 498a 0b3e 9cf1 733e 5b1f f0bc 2208 213e
00000360: ed30 bbbd 7a39 1ebe cc83 81bd 556c d53d
00000370: 50b7 0f3e 32c2 0fbe 5ac3 92be ed42 1a3e
00000380: 644e c43c 160c debd 70cd ce3d f310 6bbe
00000390: 20bb d0bd 31f0 56be 8bf5 77bd 2c58 2abd
000003a0: 8c0f 823e 7e7c babd 728b 1dbe 1fbb f33c
000003b0: dc0f 0abe a40c a2bd b4db 2f3e e273 ee3c
000003c0: 6ee3 d1bc 4d8f 28bd 3779 eb3d 3b9f aabd
000003d0: bd30 343e e0d0 7c3c f2e6 34bc 5849 bbbe
000003e0: 8b72 ad3c 7564 e0bd 7ee1 02be 1810 20be
000003f0: 9ef6 9bbd 5925 003e 8355 54be c918 19be
-0.033232503 0.012120545 -0.07403737 -0.17195742 0.032960944 0.071778126 0.038811658 -0.16054602
-0.088132046 0.119787484 -0.025138278 0.10374696 0.101493634 0.020502105 -0.22696097 0.065626316
0.043378502 0.027306795 0.1282621 -0.10923718 -0.13950019 0.03442239 -0.04142897 0.1164292
0.04294598 -0.051712215 0.07584955 -0.039299626 -0.04296357 0.0047181393 -0.09534543 0.1468697
-0.064091004 0.16264696 0.08490128 0.2286736 0.022249302 -0.15108722 0.11319313 -0.19964334
0.0457596 0.16553235 -0.33162242 0.048275888 -0.006794562 0.03584056 0.12084818 -0.117603526
-0.05493904 0.04655706 -0.0070319097 -0.05606003 0.01580331 0.09059459 -0.03326854 0.040742397
0.27257553 0.045021486 0.035428077 -0.00745978 0.03639468 0.27091023 0.035044212 0.022598268
-0.09869229 0.11818109 -0.037889816 0.030424643 0.08132779 -0.02463829 0.041473094 0.13860531
0.017553885 -0.07195363 -0.10179868 0.0412976 0.03507985 0.09768028 0.14871123 0.12744258
-0.37055513 0.012771003 0.18259498 -0.11651824 -0.09800361 -0.0856602 0.09610231 -0.110089265
-0.09168872 -0.09862725 -0.21353956 -0.014019579 -0.47998172 -0.16180767 -0.15448911 0.2304273
0.12174095 0.0001448828 0.3271602 -0.32951775 0.12768914 -0.04295956 0.20495138 0.0793854
0.08737228 0.20313561 -0.23716837 0.14195946 0.007197384 0.21269137 0.33747935 -0.04405304
-0.16378723 0.36510584 0.061218865 -0.14413007 -0.08801941 -0.40597385 -0.13220592 0.1505187
-0.35775557 -0.19771455 -0.15554152 0.061619133 -0.16197643 -0.18701418 -0.1946465 0.21409379
0.13661031 -0.05083923 -0.3514523 -0.19394678 -0.1280245 0.043281905 0.21367416 0.061699066
-0.029374748 0.0634784 0.15085691 -0.021583766 -0.0844783 -0.20722984 -0.0088529205 0.049445707
-0.24093656 -0.25775248 -0.024306577 0.03478452 0.034275398 -0.022937154 -0.04010996 0.0038839993
0.034552377 0.07678017 -0.027135616 0.24773784 -0.11737115 -0.0038438768 -0.06522428 0.15186515
-0.23360787 0.038663313 0.25583985 -0.25727478 0.0030778956 0.040612545 0.09752911 0.49252087
0.06416567 0.08480059 0.07110096 0.067477465 -0.14278369 -0.12957625 0.019190049 -0.03293101
0.032461345 -0.08901156 -0.06845217 0.10261267 0.051845457 -0.08302526 0.009544665 -0.22628148
-0.16881734 0.18493083 -0.30883512 -0.24750932 -0.28304365 -0.09658551 -0.0027073966 -0.15588146
-0.041401245 -0.07125548 -0.27735904 0.07833781 -0.2724326 -0.3500634 -0.023739757 0.11123331
-0.020533226 0.21335596 -0.28385136 -0.570936 -0.07140466 0.05006285 0.1385287 0.077261545
-0.12888643 -0.030711206 0.12831706 -0.1068447 0.1362697 0.23822635 -0.029311826 0.15725759
-0.09140191 -0.15451613 -0.063239664 0.10421053 0.14034772 -0.14038923 -0.28664666 0.15064593
0.02396316 -0.10842149 0.10097778 -0.22955684 -0.10191941 -0.20990063 -0.060536902 -0.041587994
0.25402486 -0.09105776 -0.15385225 0.029752312 -0.13482612 -0.07912567 0.17173654 0.029107992
-0.025621142 -0.041152287 0.11497729 -0.08331152 0.17596717 0.015430659 -0.01104139 -0.36579394
0.021172782 -0.10956661 -0.12781331 -0.1563114 -0.07615398 0.12514247 -0.20735745 -0.14950861

CNN5/CNN5_conv_bias f4 [14]
00000000: cae5 9cbe 84be cfbf 65bd 3fbe 8aa1 e43e
00000010: 21dd 0bbc e8a3 1abf d9c2 f03f c72a e33f
00000020: a0d0 b33e 15ca 04c0 4c8d d73e e1a4 783f
00000030: 1195 02c0 d153 b83f
-0.30644065 -1.6230016 -0.18724592 0.44654495 -0.008536608 -0.6040635 1.8809463 1.774743
0.35120106 -2.074834 0.42099988 0.97126585 -2.0403483 1.4400579
